…
[34m[1mhyperparameters: [0mlr0=0.01, lrf=0.01, momentum=0.937, weight_decay=0.0005, warmup_epochs=3.0, warmup_momentum=0.8, warmup_bias_lr=0.1, box=0.05, cls=0.5, cls_pw=1.0, obj=1.0, obj_pw=1.0, iou_t=0.2, anchor_t=4.0, fl_gamma=0.0, hsv_h=0.015, hsv_s=0.7, hsv_v=0.4, degrees=0.0, translate=0.1, scale=0.5, shear=0.0, perspective=0.0, flipud=0.0, fliplr=0.5, mosaic=1.0, mixup=0.0
[38;5;2m[i 0622 16:12:44.175551 96 cuda_flags.cc:49] CUDA enabled.[m

                 from  n    params  module                                  arguments                     
  0                -1  1      1792  models.common.Conv                      [3, 16, 6, 2, 2]              
  1                -1  1      4736  models.common.Conv                      [16, 32, 3, 2]                
  2                -1  1      4992  models.common.C3                        [32, 32, 1]                   
  3                -1  1     18688  models.common.Conv                      [32, 64, 3, 2]                
  4                -1  1     29696  models.common.C3                        [64, 64, 2]                   
  5                -1  1     74240  models.common.Conv                      [64, 128, 3, 2]               
  6                -1  1    158208  models.common.C3                        [128, 128, 3]                 
  7                -1  1    295936  models.common.Conv                      [128, 256, 3, 2]              
  8                -1  1    297984  models.common.C3                        [256, 256, 1]                 
  9                -1  1    165376  models.common.SPPF                      [256, 256, 5]                 
 10                -1  1     33280  models.common.Conv                      [256, 128, 1, 1]              
 11                -1  1         0  jittor.nn.Upsample                      [2, 'nearest']                
 12           [-1, 6]  1         0  models.common.Concat                    [1]                           
 13                -1  1     91648  models.common.C3                        [256, 128, 1, False]          
 14                -1  1      8448  models.common.Conv                      [128, 64, 1, 1]               
 15                -1  1         0  jittor.nn.Upsample                      [2, 'nearest']                
 16           [-1, 4]  1         0  models.common.Concat                    [1]                           
 17                -1  1     23296  models.common.C3                        [128, 64, 1, False]           
 18                -1  1     37120  models.common.Conv                      [64, 64, 3, 2]                
 19          [-1, 14]  1         0  models.common.Concat                    [1]                           
 20                -1  1     75264  models.common.C3                        [128, 128, 1, False]          
 21                -1  1    147968  models.common.Conv                      [128, 128, 3, 2]              
 22          [-1, 10]  1         0  models.common.Concat                    [1]                           
 23                -1  1    297984  models.common.C3                        [256, 256, 1, False]          
 24      [17, 20, 23]  1     20331  models.yolo.Detect                      [10, [[10, 13, 16, 30, 33, 23], [30, 61, 62, 45, 59, 119], [116, 90, 156, 198, 373, 326]], [64, 128, 256]]

Scaled weight_decay = 0.0005
Optimizer groups: 60 .bias, 60 conv.weight, 57 other
[31m-------------------------------------
[33mCurrent task: KD
[32mKD Method: FGD
[34mThe teacher is: /root/autodl-tmp/project/YOLOv5Jittor/TeacherTraining/runs/train/exp/weights/best.pkl .
[34mThe student is:  /root/autodl-tmp/project/YOLOv5Jittor/configs/yolov5n.yaml .
[32mThe weight of distillation loss is:  0.01 .
[31m-------------------------------------
[0m

                 from  n    params  module                                  arguments                     
  0                -1  1      3584  models.common.Conv                      [3, 32, 6, 2, 2]              
  1                -1  1     18688  models.common.Conv                      [32, 64, 3, 2]                
  2                -1  1     19200  models.common.C3                        [64, 64, 1]                   
  3                -1  1     74240  models.common.Conv                      [64, 128, 3, 2]               
  4                -1  1    158208  models.common.C3                        [128, 128, 3]                 
  5                -1  1    295936  models.common.Conv                      [128, 256, 3, 2]              
  6                -1  1    627712  models.common.C3                        [256, 256, 3]                 
  7                -1  1   1181696  models.common.Conv                      [256, 512, 3, 2]              
  8                -1  1   1185792  models.common.C3                        [512, 512, 1]                 
  9                -1  1    658432  models.common.SPPF                      [512, 512, 5]                 
 10                -1  1    132096  models.common.Conv                      [512, 256, 1, 1]              
 11                -1  1         0  jittor.nn.Upsample                      [2, 'nearest']                
 12           [-1, 6]  1         0  models.common.Concat                    [1]                           
 13                -1  1    363520  models.common.C3                        [512, 256, 1, False]          
 14                -1  1     33280  models.common.Conv                      [256, 128, 1, 1]              
 15                -1  1         0  jittor.nn.Upsample                      [2, 'nearest']                
 16           [-1, 4]  1         0  models.common.Concat                    [1]                           
 17                -1  1     91648  models.common.C3                        [256, 128, 1, False]          
 18                -1  1    147968  models.common.Conv                      [128, 128, 3, 2]              
 19          [-1, 14]  1         0  models.common.Concat                    [1]                           
 20                -1  1    297984  models.common.C3                        [256, 256, 1, False]          
 21                -1  1    590848  models.common.Conv                      [256, 256, 3, 2]              
 22          [-1, 10]  1         0  models.common.Concat                    [1]                           
 23                -1  1   1185792  models.common.C3                        [512, 512, 1, False]          
 24      [17, 20, 23]  1     40491  models.yolo.Detect                      [10, [[10, 13, 16, 30, 33, 23], [30, 61, 62, 45, 59, 119], [116, 90, 156, 198, 373, 326]], [128, 256, 512]]

[38;5;3m[w 0622 16:12:44.699307 96 __init__.py:1645] load parameter class_weights failed ...[m
[38;5;3m[w 0622 16:12:44.710549 96 __init__.py:1664] load total 306 params, 1 failed[m
…
.47it/s]               Class      Images     Targets           P           R      mAP@.5  mAP@.5:.95:  80%|â–ˆâ–ˆâ–ˆâ–ˆâ–ˆâ–ˆâ–ˆâ–ˆ  | 4/5 [00:02<00:00,  1.69it/s]               Class      Images     Targets           P           R      mAP@.5  mAP@.5:.95: 100%|â–ˆâ–ˆâ–ˆâ–ˆâ–ˆâ–ˆâ–ˆâ–ˆâ–ˆâ–ˆ| 5/5 [00:02<00:00,  1.93it/s]
                 all         130         813      0.6866      0.5951      0.5863      0.2773
150 epochs completed in 1.391 hours.


                 from  n    params  module                                  arguments                     
  0                -1  1      1792  models.common.Conv                      [3, 16, 6, 2, 2]              
  1                -1  1      4736  models.common.Conv                      [16, 32, 3, 2]                
  2                -1  1      4992  models.common.C3                        [32, 32, 1]                   
  3                -1  1     18688  models.common.Conv                      [32, 64, 3, 2]                
  4                -1  1     29696  models.common.C3                        [64, 64, 2]                   
  5                -1  1     74240  models.common.Conv                      [64, 128, 3, 2]               
  6                -1  1    158208  models.common.C3                        [128, 128, 3]                 
  7                -1  1    295936  models.common.Conv                      [128, 256, 3, 2]              
  8                -1  1    297984  models.common.C3                        [256, 256, 1]                 
  9                -1  1    165376  models.common.SPPF                      [256, 256, 5]                 
 10                -1  1     33280  models.common.Conv                      [256, 128, 1, 1]              
 11                -1  1         0  jittor.nn.Upsample                      [2, 'nearest']                
 12           [-1, 6]  1         0  models.common.Concat                    [1]                           
 13                -1  1     91648  models.common.C3                        [256, 128, 1, False]          
 14                -1  1      8448  models.common.Conv                      [128, 64, 1, 1]               
 15                -1  1         0  jittor.nn.Upsample                      [2, 'nearest']                
 16           [-1, 4]  1         0  models.common.Concat                    [1]                           
 17                -1  1     23296  models.common.C3                        [128, 64, 1, False]           
 18                -1  1     37120  models.common.Conv                      [64, 64, 3, 2]                
 19          [-1, 14]  1         0  models.common.Concat                    [1]                           
 20                -1  1     75264  models.common.C3                        [128, 128, 1, False]          
 21                -1  1    147968  models.common.Conv                      [128, 128, 3, 2]              
 22          [-1, 10]  1         0  models.common.Concat                    [1]                           
 23                -1  1    297984  models.common.C3                        [256, 256, 1, False]          
 24      [17, 20, 23]  1     20331  models.yolo.Detect                      [10, [[10, 13, 16, 30, 33, 23], [30, 61, 62, 45, 59, 119], [116, 90, 156, 198, 373, 326]], [64, 128, 256]]

[38;5;3m[w 0622 17:36:16.598886 96 __init__.py:1645] load parameter class_weights failed ...[m
[38;5;3m[w 0622 17:36:16.606470 96 __init__.py:1664] load total 296 params, 1 failed[m
Fusing layers... 
